Number of training images: 2,000, iters: 125
Total epochs needed: 800 for iters 100,000
Number of val images in [celeba_hq]: 2000
Loading pretrained model for G [outputs/celebahq-regular/checkpoints/latest_G.pth] ...
Network G with parameters: 9,037,443
InpaintingGenerator(
  (encoder): Sequential(
    (0): conv_block(
      (pad): ZeroPad2d((2, 2, 2, 2))
      (activation): ReLU()
      (conv): Conv2d(4, 64, kernel_size=(5, 5), stride=(1, 1))
    )
    (1): conv_block(
      (pad): ZeroPad2d((1, 1, 1, 1))
      (norm): InstanceNorm2d(128, eps=1e-05, momentum=0.1, affine=False, track_running_stats=False)
      (activation): ReLU()
      (conv): Conv2d(64, 128, kernel_size=(3, 3), stride=(2, 2))
    )
    (2): conv_block(
      (pad): ZeroPad2d((1, 1, 1, 1))
      (norm): InstanceNorm2d(128, eps=1e-05, momentum=0.1, affine=False, track_running_stats=False)
      (activation): ReLU()
      (conv): Conv2d(128, 128, kernel_size=(3, 3), stride=(1, 1))
    )
    (3): conv_block(
      (pad): ZeroPad2d((1, 1, 1, 1))
      (norm): InstanceNorm2d(256, eps=1e-05, momentum=0.1, affine=False, track_running_stats=False)
      (activation): ReLU()
      (conv): Conv2d(128, 256, kernel_size=(3, 3), stride=(2, 2))
    )
  )
  (blocks): Sequential(
    (0): ResBlock_new(
      (c1): Conv2d(256, 64, kernel_size=(3, 3), stride=(1, 1), padding=(1, 1))
      (d1): Conv2d(64, 64, kernel_size=(3, 3), stride=(1, 1), padding=(1, 1))
      (d2): Conv2d(64, 64, kernel_size=(3, 3), stride=(1, 1), padding=(2, 2), dilation=(2, 2))
      (d3): Conv2d(64, 64, kernel_size=(3, 3), stride=(1, 1), padding=(4, 4), dilation=(4, 4))
      (d4): Conv2d(64, 64, kernel_size=(3, 3), stride=(1, 1), padding=(8, 8), dilation=(8, 8))
      (act): ReLU(inplace=True)
      (norm): InstanceNorm2d(256, eps=1e-05, momentum=0.1, affine=False, track_running_stats=False)
      (c2): Conv2d(256, 256, kernel_size=(3, 3), stride=(1, 1), padding=(1, 1))
    )
    (1): ResBlock_new(
      (c1): Conv2d(256, 64, kernel_size=(3, 3), stride=(1, 1), padding=(1, 1))
      (d1): Conv2d(64, 64, kernel_size=(3, 3), stride=(1, 1), padding=(1, 1))
      (d2): Conv2d(64, 64, kernel_size=(3, 3), stride=(1, 1), padding=(2, 2), dilation=(2, 2))
      (d3): Conv2d(64, 64, kernel_size=(3, 3), stride=(1, 1), padding=(4, 4), dilation=(4, 4))
      (d4): Conv2d(64, 64, kernel_size=(3, 3), stride=(1, 1), padding=(8, 8), dilation=(8, 8))
      (act): ReLU(inplace=True)
      (norm): InstanceNorm2d(256, eps=1e-05, momentum=0.1, affine=False, track_running_stats=False)
      (c2): Conv2d(256, 256, kernel_size=(3, 3), stride=(1, 1), padding=(1, 1))
    )
    (2): ResBlock_new(
      (c1): Conv2d(256, 64, kernel_size=(3, 3), stride=(1, 1), padding=(1, 1))
      (d1): Conv2d(64, 64, kernel_size=(3, 3), stride=(1, 1), padding=(1, 1))
      (d2): Conv2d(64, 64, kernel_size=(3, 3), stride=(1, 1), padding=(2, 2), dilation=(2, 2))
      (d3): Conv2d(64, 64, kernel_size=(3, 3), stride=(1, 1), padding=(4, 4), dilation=(4, 4))
      (d4): Conv2d(64, 64, kernel_size=(3, 3), stride=(1, 1), padding=(8, 8), dilation=(8, 8))
      (act): ReLU(inplace=True)
      (norm): InstanceNorm2d(256, eps=1e-05, momentum=0.1, affine=False, track_running_stats=False)
      (c2): Conv2d(256, 256, kernel_size=(3, 3), stride=(1, 1), padding=(1, 1))
    )
    (3): ResBlock_new(
      (c1): Conv2d(256, 64, kernel_size=(3, 3), stride=(1, 1), padding=(1, 1))
      (d1): Conv2d(64, 64, kernel_size=(3, 3), stride=(1, 1), padding=(1, 1))
      (d2): Conv2d(64, 64, kernel_size=(3, 3), stride=(1, 1), padding=(2, 2), dilation=(2, 2))
      (d3): Conv2d(64, 64, kernel_size=(3, 3), stride=(1, 1), padding=(4, 4), dilation=(4, 4))
      (d4): Conv2d(64, 64, kernel_size=(3, 3), stride=(1, 1), padding=(8, 8), dilation=(8, 8))
      (act): ReLU(inplace=True)
      (norm): InstanceNorm2d(256, eps=1e-05, momentum=0.1, affine=False, track_running_stats=False)
      (c2): Conv2d(256, 256, kernel_size=(3, 3), stride=(1, 1), padding=(1, 1))
    )
    (4): ResBlock_new(
      (c1): Conv2d(256, 64, kernel_size=(3, 3), stride=(1, 1), padding=(1, 1))
      (d1): Conv2d(64, 64, kernel_size=(3, 3), stride=(1, 1), padding=(1, 1))
      (d2): Conv2d(64, 64, kernel_size=(3, 3), stride=(1, 1), padding=(2, 2), dilation=(2, 2))
      (d3): Conv2d(64, 64, kernel_size=(3, 3), stride=(1, 1), padding=(4, 4), dilation=(4, 4))
      (d4): Conv2d(64, 64, kernel_size=(3, 3), stride=(1, 1), padding=(8, 8), dilation=(8, 8))
      (act): ReLU(inplace=True)
      (norm): InstanceNorm2d(256, eps=1e-05, momentum=0.1, affine=False, track_running_stats=False)
      (c2): Conv2d(256, 256, kernel_size=(3, 3), stride=(1, 1), padding=(1, 1))
    )
    (5): ResBlock_new(
      (c1): Conv2d(256, 64, kernel_size=(3, 3), stride=(1, 1), padding=(1, 1))
      (d1): Conv2d(64, 64, kernel_size=(3, 3), stride=(1, 1), padding=(1, 1))
      (d2): Conv2d(64, 64, kernel_size=(3, 3), stride=(1, 1), padding=(2, 2), dilation=(2, 2))
      (d3): Conv2d(64, 64, kernel_size=(3, 3), stride=(1, 1), padding=(4, 4), dilation=(4, 4))
      (d4): Conv2d(64, 64, kernel_size=(3, 3), stride=(1, 1), padding=(8, 8), dilation=(8, 8))
      (act): ReLU(inplace=True)
      (norm): InstanceNorm2d(256, eps=1e-05, momentum=0.1, affine=False, track_running_stats=False)
      (c2): Conv2d(256, 256, kernel_size=(3, 3), stride=(1, 1), padding=(1, 1))
    )
    (6): ResBlock_new(
      (c1): Conv2d(256, 64, kernel_size=(3, 3), stride=(1, 1), padding=(1, 1))
      (d1): Conv2d(64, 64, kernel_size=(3, 3), stride=(1, 1), padding=(1, 1))
      (d2): Conv2d(64, 64, kernel_size=(3, 3), stride=(1, 1), padding=(2, 2), dilation=(2, 2))
      (d3): Conv2d(64, 64, kernel_size=(3, 3), stride=(1, 1), padding=(4, 4), dilation=(4, 4))
      (d4): Conv2d(64, 64, kernel_size=(3, 3), stride=(1, 1), padding=(8, 8), dilation=(8, 8))
      (act): ReLU(inplace=True)
      (norm): InstanceNorm2d(256, eps=1e-05, momentum=0.1, affine=False, track_running_stats=False)
      (c2): Conv2d(256, 256, kernel_size=(3, 3), stride=(1, 1), padding=(1, 1))
    )
    (7): ResBlock_new(
      (c1): Conv2d(256, 64, kernel_size=(3, 3), stride=(1, 1), padding=(1, 1))
      (d1): Conv2d(64, 64, kernel_size=(3, 3), stride=(1, 1), padding=(1, 1))
      (d2): Conv2d(64, 64, kernel_size=(3, 3), stride=(1, 1), padding=(2, 2), dilation=(2, 2))
      (d3): Conv2d(64, 64, kernel_size=(3, 3), stride=(1, 1), padding=(4, 4), dilation=(4, 4))
      (d4): Conv2d(64, 64, kernel_size=(3, 3), stride=(1, 1), padding=(8, 8), dilation=(8, 8))
      (act): ReLU(inplace=True)
      (norm): InstanceNorm2d(256, eps=1e-05, momentum=0.1, affine=False, track_running_stats=False)
      (c2): Conv2d(256, 256, kernel_size=(3, 3), stride=(1, 1), padding=(1, 1))
    )
  )
  (decoder): Sequential(
    (0): conv_block(
      (pad): ZeroPad2d((1, 1, 1, 1))
      (norm): InstanceNorm2d(256, eps=1e-05, momentum=0.1, affine=False, track_running_stats=False)
      (activation): ReLU()
      (conv): Conv2d(256, 256, kernel_size=(3, 3), stride=(1, 1))
    )
    (1): upconv_block(
      (deconv): ConvTranspose2d(256, 128, kernel_size=(4, 4), stride=(2, 2), padding=(1, 1))
      (act): ReLU(inplace=True)
      (norm): InstanceNorm2d(128, eps=1e-05, momentum=0.1, affine=False, track_running_stats=False)
      (conv): conv_block(
        (pad): ZeroPad2d((1, 1, 1, 1))
        (norm): InstanceNorm2d(128, eps=1e-05, momentum=0.1, affine=False, track_running_stats=False)
        (activation): ReLU()
        (conv): Conv2d(128, 128, kernel_size=(3, 3), stride=(1, 1))
      )
    )
    (2): upconv_block(
      (deconv): ConvTranspose2d(128, 64, kernel_size=(4, 4), stride=(2, 2), padding=(1, 1))
      (act): ReLU(inplace=True)
      (norm): InstanceNorm2d(64, eps=1e-05, momentum=0.1, affine=False, track_running_stats=False)
      (conv): conv_block(
        (pad): ZeroPad2d((1, 1, 1, 1))
        (norm): InstanceNorm2d(64, eps=1e-05, momentum=0.1, affine=False, track_running_stats=False)
        (activation): ReLU()
        (conv): Conv2d(64, 64, kernel_size=(3, 3), stride=(1, 1))
      )
    )
    (3): conv_block(
      (pad): ZeroPad2d((1, 1, 1, 1))
      (activation): Tanh()
      (conv): Conv2d(64, 3, kernel_size=(3, 3), stride=(1, 1))
    )
  )
)
Discriminator D with parameters: 36,673,025
Discriminator(
  (global_model): Sequential(
    (0): conv_block(
      (pad): ZeroPad2d((2, 2, 2, 2))
      (norm): BatchNorm2d(64, eps=1e-05, momentum=0.1, affine=True, track_running_stats=True)
      (activation): LeakyReLU(negative_slope=0.2)
      (conv): Conv2d(3, 64, kernel_size=(5, 5), stride=(2, 2))
    )
    (1): conv_block(
      (pad): ZeroPad2d((2, 2, 2, 2))
      (norm): BatchNorm2d(128, eps=1e-05, momentum=0.1, affine=True, track_running_stats=True)
      (activation): LeakyReLU(negative_slope=0.2)
      (conv): Conv2d(64, 128, kernel_size=(5, 5), stride=(2, 2))
    )
    (2): conv_block(
      (pad): ZeroPad2d((2, 2, 2, 2))
      (norm): BatchNorm2d(256, eps=1e-05, momentum=0.1, affine=True, track_running_stats=True)
      (activation): LeakyReLU(negative_slope=0.2)
      (conv): Conv2d(128, 256, kernel_size=(5, 5), stride=(2, 2))
    )
    (3): conv_block(
      (pad): ZeroPad2d((2, 2, 2, 2))
      (norm): BatchNorm2d(512, eps=1e-05, momentum=0.1, affine=True, track_running_stats=True)
      (activation): LeakyReLU(negative_slope=0.2)
      (conv): Conv2d(256, 512, kernel_size=(5, 5), stride=(2, 2))
    )
    (4): conv_block(
      (pad): ZeroPad2d((2, 2, 2, 2))
      (norm): BatchNorm2d(512, eps=1e-05, momentum=0.1, affine=True, track_running_stats=True)
      (activation): LeakyReLU(negative_slope=0.2)
      (conv): Conv2d(512, 512, kernel_size=(5, 5), stride=(2, 2))
    )
    (5): conv_block(
      (pad): ZeroPad2d((2, 2, 2, 2))
      (norm): BatchNorm2d(512, eps=1e-05, momentum=0.1, affine=True, track_running_stats=True)
      (activation): LeakyReLU(negative_slope=0.2)
      (conv): Conv2d(512, 512, kernel_size=(5, 5), stride=(2, 2))
    )
  )
  (local_fea1): conv_block(
    (pad): ZeroPad2d((2, 2, 2, 2))
    (norm): BatchNorm2d(64, eps=1e-05, momentum=0.1, affine=True, track_running_stats=True)
    (activation): LeakyReLU(negative_slope=0.2)
    (conv): Conv2d(3, 64, kernel_size=(5, 5), stride=(2, 2))
  )
  (local_fea2): conv_block(
    (pad): ZeroPad2d((2, 2, 2, 2))
    (norm): BatchNorm2d(128, eps=1e-05, momentum=0.1, affine=True, track_running_stats=True)
    (activation): LeakyReLU(negative_slope=0.2)
    (conv): Conv2d(64, 128, kernel_size=(5, 5), stride=(2, 2))
  )
  (local_fea3): conv_block(
    (pad): ZeroPad2d((2, 2, 2, 2))
    (norm): BatchNorm2d(256, eps=1e-05, momentum=0.1, affine=True, track_running_stats=True)
    (activation): LeakyReLU(negative_slope=0.2)
    (conv): Conv2d(128, 256, kernel_size=(5, 5), stride=(2, 2))
  )
  (local_fea4): conv_block(
    (pad): ZeroPad2d((2, 2, 2, 2))
    (norm): BatchNorm2d(512, eps=1e-05, momentum=0.1, affine=True, track_running_stats=True)
    (activation): LeakyReLU(negative_slope=0.2)
    (conv): Conv2d(256, 512, kernel_size=(5, 5), stride=(2, 2))
  )
  (local_fea5): conv_block(
    (pad): ZeroPad2d((2, 2, 2, 2))
    (norm): BatchNorm2d(512, eps=1e-05, momentum=0.1, affine=True, track_running_stats=True)
    (activation): LeakyReLU(negative_slope=0.2)
    (conv): Conv2d(512, 512, kernel_size=(5, 5), stride=(2, 2))
  )
  (global_classifier): Linear(in_features=8192, out_features=512, bias=True)
  (local_classifier): Linear(in_features=8192, out_features=512, bias=True)
  (classifier): Sequential(
    (0): LeakyReLU(negative_slope=0.2)
    (1): Linear(in_features=1024, out_features=1, bias=True)
  )
)
Vgg19 with parameters: 12,944,960
VGGFeatureExtractor(
  (relu1_1): Sequential(
    (0): Conv2d(3, 64, kernel_size=(3, 3), stride=(1, 1), padding=(1, 1))
    (1): ReLU(inplace=True)
  )
  (relu2_1): Sequential(
    (0): Conv2d(64, 64, kernel_size=(3, 3), stride=(1, 1), padding=(1, 1))
    (1): ReLU(inplace=True)
    (2): MaxPool2d(kernel_size=2, stride=2, padding=0, dilation=1, ceil_mode=False)
    (3): Conv2d(64, 128, kernel_size=(3, 3), stride=(1, 1), padding=(1, 1))
    (4): ReLU(inplace=True)
  )
  (relu3_1): Sequential(
    (0): Conv2d(128, 128, kernel_size=(3, 3), stride=(1, 1), padding=(1, 1))
    (1): ReLU(inplace=True)
    (2): MaxPool2d(kernel_size=2, stride=2, padding=0, dilation=1, ceil_mode=False)
    (3): Conv2d(128, 256, kernel_size=(3, 3), stride=(1, 1), padding=(1, 1))
    (4): ReLU(inplace=True)
  )
  (relu4_1): Sequential(
    (0): Conv2d(256, 256, kernel_size=(3, 3), stride=(1, 1), padding=(1, 1))
    (1): ReLU(inplace=True)
    (2): Conv2d(256, 256, kernel_size=(3, 3), stride=(1, 1), padding=(1, 1))
    (3): ReLU(inplace=True)
    (4): Conv2d(256, 256, kernel_size=(3, 3), stride=(1, 1), padding=(1, 1))
    (5): ReLU(inplace=True)
    (6): MaxPool2d(kernel_size=2, stride=2, padding=0, dilation=1, ceil_mode=False)
    (7): Conv2d(256, 512, kernel_size=(3, 3), stride=(1, 1), padding=(1, 1))
    (8): ReLU(inplace=True)
  )
  (relu5_1): Sequential(
    (0): Conv2d(512, 512, kernel_size=(3, 3), stride=(1, 1), padding=(1, 1))
    (1): ReLU(inplace=True)
    (2): Conv2d(512, 512, kernel_size=(3, 3), stride=(1, 1), padding=(1, 1))
    (3): ReLU(inplace=True)
    (4): Conv2d(512, 512, kernel_size=(3, 3), stride=(1, 1), padding=(1, 1))
    (5): ReLU(inplace=True)
    (6): MaxPool2d(kernel_size=2, stride=2, padding=0, dilation=1, ceil_mode=False)
    (7): Conv2d(512, 512, kernel_size=(3, 3), stride=(1, 1), padding=(1, 1))
    (8): ReLU(inplace=True)
  )
)
[epoch:  0, iter:      50, lr:2.000e-04] l_g_pix: 0.0242 l_g_fea: 0.4511 l_g_gan: 0.0107 l_g_dis_fea: 0.2949 l_d_real: 0.2094 l_d_fake: 0.2533 D_real: 1.7669 D_fake: -1.5518 
[epoch:  0, iter:     100, lr:2.000e-04] l_g_pix: 0.0245 l_g_fea: 0.4508 l_g_gan: 0.0206 l_g_dis_fea: 0.3067 l_d_real: 0.0453 l_d_fake: 0.0180 D_real: 2.7518 D_fake: -4.0813 
…
